weights.npy (npy, 2128 bytes, 1 tensors)

array f4 [10, 50]
-0.15318218 -0.057831 0.1914787 0.47358373 0.2005014 0.060825605 -0.19075164 0.09089671
0.09691872 0.038229484 -0.18407632 0.1857093 -0.015448983 -0.19442241 0.049377475 0.51349115
0.29371276 -0.11593531 0.09459026 0.06478055 -0.18170777 0.11842157 0.020784343 0.024618275
0.31540686 0.32226652 0.31285056 0.038754713 -0.051898714 0.19086346 -0.08916313 0.36669338
-0.25965515 0.19058727 -0.0721549 -0.39642778 -0.19758299 0.32160288 -0.2594346 0.054882165
0.14931594 -0.20214337 -0.06740349 -0.52361834 0.21324201 -0.009776889 0.007793978 -0.20162304
-0.380365 -0.11807884 0.06807253 -0.17758198 -0.14355125 -0.50475603 0.8135367 -0.1982727
0.59875804 -0.35354197 0.71892095 -0.422925 -0.6850008 0.92122483 -0.6651511 0.23564033
-0.7073157 -0.13293129 0.3048104 -0.08885898 -0.52278304 -0.42569846 -0.4710676 0.97735375
0.03890026 -0.19460541 -0.52887475 -0.25205737 0.020686645 0.6956635 -0.4486816 -0.41368803
-0.105570465 -0.69518334 -0.023974942 -0.012313626 -0.96411145 -0.6818375 -1.0178307 -0.71426696
-0.65457547 -0.87378895 -0.5406933 -0.43820706 0.35729337 0.43741855 -0.124058574 0.15060295
0.12568253 0.95755213 0.4614444 0.2618613 -0.20475928 0.29105455 -0.13686596 0.67246604
0.20108292 -0.16708142 -0.2260618 0.1219857 -0.15423058 0.06846528 0.0017756366 -0.12928164
0.13350932 0.7435246 0.0042433627 0.94808847 0.42224222 0.13644809 0.31354696 0.024854723
0.11830299 -0.46067664 -0.593787 -0.037109874 0.1261629 -0.38254413 -0.33121625 0.10431115
0.77681094 -0.5144102 0.5596611 1.2064706 0.5244526 -0.1957021 -0.059631944 0.098408334
0.28747225 -0.0027706847 0.16697896 0.144176 0.6736268 0.020590832 -0.34572163 0.7079382
-0.70435697 0.5885222 1.0743492 -0.6630595 0.3313879 -0.40423822 -0.6101407 -0.098403454
-0.3800405 -0.0005448483 -0.3693932 -0.26017547 -0.14682113 -0.042836767 0.549564 0.116802305
0.5350134 -0.39519107 -0.6583612 0.56501144 -0.18217432 -0.07424871 -0.2558847 -0.74202466
-0.17445068 -0.33520338 0.34414363 -0.39647272 -0.4562792 -0.098654434 -0.09472802 0.041453388
-0.42760426 -0.5751506 0.23811871 -0.3491657 0.032793917 0.43566334 0.69986343 0.858091
0.049485 -0.053849857 0.019812537 0.93811756 0.29615477 0.27769932 -0.32952955 -0.30009493
0.40681434 0.14917524 -0.5877087 0.0056243422 0.2719702 0.17809612 0.74350506 -0.3718177
-0.26562804 -0.6240021 -0.2077479 0.9477364 -0.3168001 0.66395706 -0.5421454 -0.12605152
-0.13553992 -0.67347693 0.36736265 -0.30126485 0.25681886 0.47662422 0.29128194 0.3452353
0.52576613 0.879693 0.47478437 -0.12842254 -0.6883683 0.16363962 -0.56898373 -0.7918427
0.109844774 0.9027065 0.6405838 -0.5300479 0.49805912 0.3207098 -0.4423103 0.6849056
0.7695202 0.09152208 0.23854588 0.22948942 0.29645354 -0.48997587 -0.45763162 0.3430717
-0.1519704 0.07862813 -0.025558004 0.72094935 -0.5531808 -0.3133019 0.22535117 -0.23156665
-0.7288027 0.3460403 0.37888965 -0.5859659 0.07160199 -0.74491334 -0.2833925 0.63465303
00000000: cadb 1cbe 33e0 6cbd fe12 443e 9179 f23e
00000010: 3d50 4d3e 4524 793d 6654 43be 0e28 ba3d
00000020: 527d c63d 8596 1c3d 817e 3cbe 942a 3e3e
00000030: bb1d 7dbc ab16 47be 0940 4a3d 2874 033f
00000040: 8561 963e 7e6f edbd 8ab8 c13d aaab 843d
00000050: 9a11 3abe 0287 f23d ed43 aa3c 44ac c93c
00000060: 027d a13e 1e00 a53e f32d a03e 43bd 1e3d
00000070: bf93 54bd b671 433e 299b b6bd 3cbf bb3e
00000080: 85f1 84be 4f29 433e f3c5 93bd 95f8 cabe
00000090: 3253 4abe 22a9 a43e 9dd4 84be 1fcc 603d
000000a0: 47e6 183e acfe 4ebe d70a 8abd da0b 06bf
000000b0: 1d5c 5a3e 3f2f 20bc a064 ff3b 4576 4ebe
000000c0: 34bf c2be 52d3 f1bd 9c69 8b3d 0dd8 35be
000000d0: 19ff 12be b137 01bf f143 503f 0008 4bbe
000000e0: 3548 193f 7403 b5be 340b 383f a089 d8be
000000f0: 365c 2fbf 64d5 6b3f 5847 2abf b34b 713e
00000100: a412 35bf 241f 08be 1c10 9c3e b2fb b5bd
00000110: 1cd5 05bf 26f5 d9be c62f f1be db33 7a3f
00000120: e155 1f3d a446 47be 5664 07bf aa0d 81be
00000130: 0a77 a93c 0117 323f 98b9 e5be ebce d3be
00000140: 5435 d8bd 89f7 31bf 1967 c4bc 17bf 49bc
00000150: 02d0 76bf e78c 2ebf 4748 82bf 33da 36bf
00000160: 4292 27bf a2b0 5fbf e06a 0abf ad5c e0be
00000170: 28ef b63e 53f5 df3e 6c12 febd a937 1a3e
00000180: ecb2 003e 2322 753f 7142 ec3e af12 863e
00000190: 6bac 51be 1a05 953e 9726 0cbe bc26 2c3f
000001a0: aee8 4d3e 6417 2bbe bf7c 67be a4d3 f93d
000001b0: 9fee 1dbe 8637 8c3d 7abc e83a 6862 04be
000001c0: abb6 083e a157 3e3f e80b 8b3b edb5 723f
000001d0: 2230 d83e 0cb9 0b3e 3a89 a03e 229c cb3c
000001e0: d748 f23d cfdd ebbe 6d02 18bf 8600 18bd
000001f0: d930 013e d3dc c3be 2d95 a9be 16a1 d53d
00000200: 15dd 463f 63b0 03bf f345 0f3f a16d 9a3f
00000210: 8742 063f 2266 48be a040 74bd 4f8a c93d
00000220: 902f 933e 6094 35bb 88fc 2a3e e0a2 133e
00000230: ce72 2c3f 1bae a83c 6d02 b1be 703b 353f
00000240: bd50 34bf 64a9 163f 4684 893f 44be 29bf
00000250: adab a93e 50f8 cebe 2e32 1cbf c087 c9bd
00000260: ab94 c2be 27d4 0eba 1b21 bdbe b835 85be
00000270: 4758 16be 9b75 2fbd 3ab0 0c3f 0c36 ef3d
00000280: a3f6 083f 7c56 cabe 5c8a 28bf 97a4 103f
00000290: e88b 3abe b50f 98bd 5203 83be 54f5 3dbf
000002a0: 33a3 32be c79f abbe 9833 b03e 79fe cabe
000002b0: 6d9d e9be 560b cabd c400 c2bd 07cb 293d
000002c0: f2ee dabe 123d 13bf 64d5 733e d9c5 b2be
000002d0: ea52 063d 440f df3e 402a 333f daab 5b3f
000002e0: c9b0 4a3d ab91 5cbd e74d a23c 7928 703f
000002f0: 99a1 973e 9b2e 8e3e 19b8 a8be 0ba6 99be
00000300: f849 d03e 65c1 183e 1474 16bf 674c b83b
00000310: ae3f 8b3e d45e 363e 5956 3e3f e45e bebe
00000320: 6600 88be 9abe 1fbf debb 54be da9e 723f
00000330: 9f33 a2be 17f9 293f 0aca 0abf a613 01be
00000340: faca 0abe fc68 2cbf f516 bc3e 633f 9abe
00000350: c37d 833e 1708 f43e e822 953e aec2 b03e
00000360: 9c98 063f 8f33 613f f016 f33e 3381 03be
00000370: e838 30bf 2591 273e eba8 11bf 34b6 4abf
00000380: 4cf6 e03d c617 673f 4dfd 233f 38b1 07bf
00000390: 9b01 ff3e 1334 a43e 7f76 e2be f955 2f3f
000003a0: 47ff 443f ee6f bb3d 5f45 743e 46ff 6a3e
000003b0: c2c8 973e 1ede fabe b14e eabe 18a7 af3e
000003c0: 219e 1bbe c907 a13d 055f d1bc 2390 383f
000003d0: 429d 0dbf 1b69 a0be 75c2 663e cf1f 6dbe
000003e0: d092 3abf 322c b13e d3fd c13e dc01 16bf
000003f0: 10a4 923d a4b2 3ebf d218 91be 9f78 223f
