weights.npy (npy, 2128 bytes, 1 tensors)

array f4 [10, 50]
0	0x3e458f90	0.19293046
1	0x3e71e06e	0.2362077
2	0xbe6f4056	-0.23364386
3	0xbdc659cd	-0.09685097
4	0xbe9e084d	-0.30865708
5	0x3e39deba	0.1815137
6	0x3d955aa6	0.072926804
7	0x3cfdf790	0.031001836
8	0xbe412019	-0.188599
9	0xbe648fc6	-0.2232047
10	0xbe3ffdeb	-0.18749206
11	0x3e2604cf	0.16212772
12	0xbd4b16bb	-0.049582224
13	0x3e2ae61e	0.16689345
14	0xbe956512	-0.29178673
15	0xbe9ac74c	-0.30230176
16	0xbe91ae04	-0.28453076
17	0xbe0b6919	-0.1361431
18	0xbe228ca2	-0.1587396
19	0x3e01b047	0.126649
20	0x3e8a0f7d	0.26964942
21	0x3d9a20b3	0.07525768
22	0x3e70d560	0.23518896
23	0x3e987053	0.29773197
24	0x3df959c5	0.12175325
25	0xbe1b71a0	-0.15180063
26	0x3e629d72	0.22130373
27	0xbdbd0eee	-0.09231363
28	0xbdac39dc	-0.08409473
29	0xbe9a109e	-0.30090803
30	0x3d9253eb	0.07144912
31	0xbe652a7f	-0.22379492
32	0x3dc5d47c	0.09659669
33	0xbe044331	-0.12916256
34	0xbe5dd69f	-0.21663903
35	0x3dc140d1	0.09436191
36	0xbe1a5d43	-0.15074639
37	0xbcd5ef74	-0.026115157
38	0xbe82dd79	-0.25559595
39	0x3e539ebf	0.20666026
40	0xbede8060	-0.43457317
41	0xbeac3ec0	-0.33641624
42	0xbdd04120	-0.101686716
43	0xbc99cb11	-0.018773587
44	0x3e0f8ece	0.1401932
45	0xbb2cbd57	-0.0026357973
46	0x3ea44a1f	0.320878
47	0xbdb037fd	-0.08604429
48	0xbd7749e9	-0.06037322
49	0x3e768c71	0.24077012
50	0x3f3dd5aa	0.7415415
51	0xbed35aea	-0.412803
52	0xbf448110	-0.76759434
53	0xbd883a8c	-0.06651792
54	0x3ec53691	0.38518193
55	0xbf3c2da1	-0.73507124
56	0x3f0f34e0	0.55940056
57	0x3ea28325	0.3174068
58	0xbf1027f5	-0.5631097
59	0xbe91515c	-0.28382385
60	0x3d0dc2ee	0.034609728
61	0x3e80c265	0.2514831
62	0x3f3d0207	0.7383122
63	0xbf11f080	-0.570076
64	0x3f27ea36	0.6559175
65	0xbea79136	-0.32727975
66	0xbe8d7ac5	-0.27632728
67	0x3eb5e8f1	0.35529283
68	0x3f13bf3a	0.57713664
69	0x3e7edbb1	0.24888493
70	0xbe1e534f	-0.15461467
71	0xbf83986b	-1.0280889
72	0xbe52b76b	-0.20577781
73	0xbeb08246	-0.3447439
74	0x3f4d62b0	0.8022871
75	0x3f854f8f	1.0414904
76	0xbe20e757	-0.15713249
77	0x3f1fd9ef	0.62441915
78	0xbe0d6a0d	-0.13809986
79	0x3e6ef7a0	0.23336649
80	0xbea9edbf	-0.33189198
81	0x3f249eca	0.6430479
82	0xbe8fc560	-0.28080273
83	0x3e978ba0	0.29598713
84	0x3d8ddab8	0.06926483
85	0x3f0c28fd	0.54750043
86	0xbe8e46da	-0.2778843
87	0x3f3e111c	0.74244857
88	0xbf336cbd	-0.70087796
89	0xbdc26fca	-0.09493978
90	0x3f180352	0.59380066
91	0xbf5e8f9c	-0.8693788
92	0x3e4f180e	0.2022402
93	0x3e973ec3	0.2954007
94	0x3e662c6d	0.22477885
95	0xbe63f0ac	-0.22259778
96	0x3f218bcf	0.63103956
97	0x3e320d97	0.17387997
98	0xbe5a7a02	-0.21335605
99	0x3d2ed290	0.042681277
100	0xbe3d7416	-0.18501315
101	0xbf07a5ca	-0.5298735
102	0x3e4df908	0.20114529
103	0x3f118b03	0.5685274
104	0x3f62660e	0.88436973
105	0x3e9ef447	0.31045744
106	0x3eedc654	0.46440375
107	0xbed260e3	-0.41089544
108	0x3d404d51	0.046948735
109	0x3e8366fb	0.25664505
110	0xbedf0dd3	-0.43565235
111	0xbe87d33f	-0.26528355
112	0xbd61c899	-0.055122945
113	0x3e178bd8	0.1479944
114	0xbe3d9d98	-0.18517148
115	0x3e361958	0.17783105
116	0xbf288b3f	-0.6583747
117	0x3e0934e1	0.13399078
118	0xbe9f4296	-0.3110549
119	0x3ed956a2	0.42448908
120	0xbf5aac58	-0.85419226
121	0x3e964adc	0.29353988
122	0xbe2a3869	-0.16623081
123	0xbe9c8cba	-0.30576116
124	0xbe20282b	-0.15640323
125	0xbe4bc804	-0.19900519
126	0x3f1a1020	0.60180855
127	0xbbd9fc34	-0.0066523794
128	0x3f319c0a	0.6937872
129	0x3eb698c1	0.35663417
130	0x3e7c82fa	0.24659339
131	0xbf73623f	-0.95071787
132	0xbf210d90	-0.6291132
133	0xbd0ceadd	-0.03440367
134	0x3f375a7e	0.71622455
135	0xbe89ce65	-0.2691528
136	0xbf123373	-0.57109755
137	0x3cfae003	0.030624395
138	0x3ef95ed5	0.48705164
139	0xbefa745e	-0.48916906
140	0xbf4e69b9	-0.8063007
141	0x3e4a0e07	0.19731914
142	0xbe8001dc	-0.2500142
143	0xbefdb8ed	-0.4955515
144	0xbe966669	-0.29375008
145	0xbeb9dfcb	-0.36303553
146	0xbe53788b	-0.20651452
147	0xbd74b33b	-0.05974124
148	0xbf3e5129	-0.7434259
149	0x3e8ac754	0.271052
150	0x3e6a1977	0.22861277
151	0xbdacff15	-0.084470905
152	0x3e997e1b	0.29979023
153	0x3e2e95d6	0.17049345
154	0x3f31cdee	0.6945485
155	0xbf2cdb2f	-0.6752195
156	0xbdb160c3	-0.08661034
157	0x3eb7c4e7	0.35892412
158	0x3e9d66f5	0.30742612
159	0xbdf08847	-0.11744743
160	0x3e00890f	0.12552284
161	0xbeb0e189	-0.3454707
162	0xbf2ec6fa	-0.68272364
163	0xbf587183	-0.84548205
164	0x3f2ac52e	0.6670712
165	0x3d32a6c2	0.043616064
166	0xbe0e2768	-0.1388222
167	0x3d8dc428	0.069221795
168	0xbef03a28	-0.4691937
169	0x3eda27f3	0.42608604
170	0x3e1771c5	0.14789493
171	0x3e41d656	0.18929419
172	0xbeebc551	-0.46048978
173	0xbe4f74fa	-0.20259467
174	0xbe8438b6	-0.25824517
175	0xbe2919a8	-0.16513693
176	0xbe995fc4	-0.29955876
177	0x3e1c0cbe	0.15239236
178	0x3f26ab4a	0.65105116
179	0x3eabaacf	0.33528754
180	0xbcd9441c	-0.026521735
181	0xbe85c8a0	-0.26129627
182	0xbe51806e	-0.20459148
183	0xbea79ec0	-0.32738304
184	0x3f28e99a	0.6598145
185	0x3e92fa1a	0.28706437
186	0x3ee6e356	0.4509532
187	0xbf1ff8b2	-0.62488854
188	0xbd7688f1	-0.06018919
189	0xbdc2de48	-0.09515053
190	0xbeaa6a93	-0.33284435
191	0x3e65a032	0.22424391
192	0xbf0c5995	-0.5482419
193	0x3f1bebb3	0.60906523
194	0xbeda232d	-0.42604962
195	0x3f0e3d52	0.5556232
196	0xbe0da67f	-0.13833044
197	0x3ec861ab	0.39137015
198	0xbf446354	-0.7671406
199	0x3e66bfa9	0.2253405
200	0xbe94dfa3	-0.2907687
201	0x3e0f85ee	0.14015934
202	0x3ebbe9dd	0.3670186
203	0x3f2d815a	0.677755
204	0x3f34b933	0.7059509
205	0x3ed19396	0.40932912
206	0x3f2f7a62	0.68546116
207	0x3e232d2d	0.15935202
208	0xbd844e3c	-0.064602345
209	0x3f190221	0.59768873
210	0xbe303ccd	-0.17210694
211	0x3f095506	0.5364536
212	0x3ce17833	0.027523136
213	0x3de2bf2d	0.1107162
214	0xbe63e420	-0.22254992
215	0x3e8f6a77	0.28010914
216	0xbec23461	-0.37930587
217	0xbec7d422	-0.39029032
218	0xbeb1ed55	-0.34751382
219	0xbe8d7e1b	-0.27635273
220	0xbf669e61	-0.9008542
221	0x3e2b7db4	0.1674717
222	0x3f579a46	0.8421978
223	0xbeffafde	-0.49938864
224	0xbe5159e5	-0.20444448
225	0xbe99dcb8	-0.30051208
226	0x3ef45220	0.47718906
227	0xbe3ce8e6	-0.18448219
228	0x3f0aa93c	0.5416448
229	0xbf5e9e48	-0.8696027
230	0xbef8ce54	-0.48594916
231	0xbeee25ff	-0.46513364
232	0x3ee16182	0.44019705
233	0xbf09a3ba	-0.5376545
234	0x3f21f8e4	0.632704
235	0xbe98b577	-0.29825947
236	0xbd28fb8e	-0.041255526
237	0x3f622bca	0.88348067
238	0x3df09c2c	0.117485374
239	0x3f21c9eb	0.6319873
240	0xbf235eac	-0.6381633
241	0x3d2851a7	0.041093495
242	0x3e774d83	0.24150662
243	0x3ecbf4e2	0.39835268
244	0x3f522ba7	0.8209786
245	0x3f136a87	0.5758442
246	0xbdffb3d9	-0.12485475
247	0x3e93a4da	0.2883671
248	0xbd932858	-0.07185429
249	0xbec3bf4d	-0.38231888
250	0xbe9748f6	-0.29547852
251	0x3e5cc5d6	0.21559843
252	0x3e9a27bb	0.30108437
253	0xbf093a19	-0.53604275
254	0xbf28c264	-0.65921617
255	0x3f037e2a	0.51364386
